…
2025-10-28 14:57:08,002 INFO: Number of test images in normalised_images: 378
2025-10-28 14:57:08,005 INFO: Dataset [PairedImageDataset] - entirety_ear_vessel_dataset is built.
2025-10-28 14:57:08,005 INFO: Number of test images in entirety_ear_vessel_dataset: 69
2025-10-28 14:57:08,013 INFO: Dataset [PairedImageDataset] - yemai_map is built.
2025-10-28 14:57:08,013 INFO: Number of test images in yemai_map: 268
2025-10-28 14:57:08,526 INFO: Network [MambaIRv2] is created.
2025-10-28 14:57:08,871 INFO: Network: MambaIRv2, with parameters: 23,053,917
2025-10-28 14:57:08,871 INFO: MambaIRv2(
  (conv_first): Conv2d(3, 174, kernel_size=(3, 3), stride=(1, 1), padding=(1, 1))
  (patch_embed): PatchEmbed(
    (norm): LayerNorm((174,), eps=1e-05, elementwise_affine=True)
  )
  (patch_unembed): PatchUnEmbed()
  (layers): ModuleList(
    (0-5): 6 x ASSB(
      (patch_embed): PatchEmbed()
      (patch_unembed): PatchUnEmbed()
      (residual_group): BasicBlock(
        dim=174, input_resolution=(64, 64), depth=6
        (layers): ModuleList(
          (0-5): 6 x AttentiveLayer(
            (softmax): Softmax(dim=-1)
            (lrelu): LeakyReLU(negative_slope=0.01)
            (sigmoid): Sigmoid()
            (norm1): LayerNorm((174,), eps=1e-05, elementwise_affine=True)
            (norm2): LayerNorm((174,), eps=1e-05, elementwise_affine=True)
            (norm3): LayerNorm((174,), eps=1e-05, elementwise_affine=True)
            (norm4): LayerNorm((174,), eps=1e-05, elementwise_affine=True)
            (wqkv): Linear(in_features=174, out_features=522, bias=True)
            (win_mhsa): WindowAttention(
              dim=174, window_size=(16, 16), num_heads=6, qkv_bias=True
              (proj): Linear(in_features=174, out_features=174, bias=True)
              (softmax): Softmax(dim=-1)
            )
            (assm): ASSM(
              (selectiveScan): Selective_Scan()
              (out_norm): LayerNorm((348,), eps=1e-05, elementwise_affine=True)
              (act): SiLU()
              (out_proj): Linear(in_features=348, out_features=174, bias=True)
              (in_proj): Sequential(
                (0): Conv2d(174, 348, kernel_size=(1, 1), stride=(1, 1))
              )
              (CPE): Sequential(
                (0): Conv2d(348, 348, kernel_size=(3, 3), stride=(1, 1), padding=(1, 1), groups=348)
              )
              (embeddingB): Embedding(128, 64)
              (route): Sequential(
                (0): Linear(in_features=174, out_features=58, bias=True)
                (1): GELU(approximate='none')
                (2): Linear(in_features=58, out_features=128, bias=True)
                (3): LogSoftmax(dim=-1)
              )
              (deg_head): DegradationHead(
                (conv1): Conv2d(1, 8, kernel_size=(3, 3), stride=(1, 1), padding=(1, 1))
                (conv2): Conv2d(8, 1, kernel_size=(1, 1), stride=(1, 1))
              )
            )
            (convffn1): ConvFFN(
              (fc1): Linear(in_features=174, out_features=348, bias=True)
              (act): GELU(approximate='none')
              (dwconv): dwconv(
                (depthwise_conv): Sequential(
                  (0): Conv2d(348, 348, kernel_size=(5, 5), stride=(1, 1), padding=(2, 2), groups=348)
                  (1): GELU(approximate='none')
                )
              )
              (fc2): Linear(in_features=348, out_features=174, bias=True)
            )
            (convffn2): ConvFFN(
              (fc1): Linear(in_features=174, out_features=348, bias=True)
              (act): GELU(approximate='none')
              (dwconv): dwconv(
                (depthwise_conv): Sequential(
                  (0): Conv2d(348, 348, kernel_size=(5, 5), stride=(1, 1), padding=(2, 2), groups=348)
                  (1): GELU(approximate='none')
                )
              )
              (fc2): Linear(in_features=348, out_features=174, bias=True)
            )
            (embeddingA): Embedding(64, 16)
          )
        )
      )
      (conv): Conv2d(174, 174, kernel_size=(3, 3), stride=(1, 1), padding=(1, 1))
    )
  )
  (norm): LayerNorm((174,), eps=1e-05, elementwise_affine=True)
  (conv_after_body): Conv2d(174, 174, kernel_size=(3, 3), stride=(1, 1), padding=(1, 1))
  (conv_before_upsample): Sequential(
    (0): Conv2d(174, 64, kernel_size=(3, 3), stride=(1, 1), padding=(1, 1))
    (1): LeakyReLU(negative_slope=0.01, inplace=True)
  )
  (upsample): Upsample(
    (0): Conv2d(64, 256, kernel_size=(3, 3), stride=(1, 1), padding=(1, 1))
    (1): PixelShuffle(upscale_factor=2)
    (2): Conv2d(64, 256, kernel_size=(3, 3), stride=(1, 1), padding=(1, 1))
    (3): PixelShuffle(upscale_factor=2)
  )
  (conv_last): Conv2d(64, 3, kernel_size=(3, 3), stride=(1, 1), padding=(1, 1))
)
2025-10-28 14:57:08,997 INFO: Loading MambaIRv2 model from /root/autodl-tmp/mambaIR2/MambaIR/experiments/MambaIRv2_SR_x4/models/net_g_215000.pth, with param key: [params].
2025-10-28 14:57:09,197 INFO: Model [MambaIRv2Model] is created.
2025-10-28 14:57:09,198 INFO: Testing normalised_images...
2025-10-28 14:58:09,394 INFO: Validation normalised_images
…
